checkpoint/model.pt (torch, 213831 bytes, 9 tensors)

rnn.weight_ih_l0 f4 [256, 10]
0	0x3e26820c	0.16260546
1	0x3dbb885a	0.09156866
2	0x3e2e26f3	0.17007045
3	0xbdeeeffb	-0.116668664
4	0x3de9abe7	0.11409741
5	0x3eb8c3a3	0.3608676
6	0x3f3a5dbc	0.7279928
7	0x3f56dbfe	0.8392943
8	0xbf34ab9a	-0.70574343
9	0xbeaba69c	-0.3352555
10	0xbe786378	-0.24256694
11	0xbde43c14	-0.111442715
12	0x3ddd0889	0.107926436
13	0xbf16e0d7	-0.5893683
14	0xbc9e9eda	-0.019362856
15	0x3f3043a0	0.6885319
16	0x3f14e1c2	0.5815698
17	0x3f97b97f	1.1853484
18	0xbea84b5e	-0.3287
19	0xbf0b04b6	-0.54304063
20	0x3c15d6d3	0.009145456
21	0x3dde3da9	0.108516045
22	0x3ea11f89	0.31469372
23	0x3e0b65e0	0.13613081
24	0x3e1281d9	0.14307345
25	0x3e0ec7b0	0.13943362
26	0x3f0291a4	0.5100348
27	0x3f5301be	0.82424533
28	0xbf275fed	-0.65380746
29	0xbd3a7dc4	-0.045530096
30	0xbc1e84e0	-0.009675235
31	0xbe2d9582	-0.16951564
32	0xbdf0b072	-0.11752404
33	0xbdc54df1	-0.09634007
34	0xbe30de8a	-0.17272392
35	0x3e31c655	0.17360814
36	0xbe63c0a9	-0.22241463
37	0x3c13f3ee	0.009030325
38	0x3e870b50	0.26375818
39	0xbe4d97f0	-0.20077491
40	0xbe1cd3aa	-0.15315118
41	0xbee23391	-0.44179967
42	0xbe312cbf	-0.17302226
43	0xbf21680d	-0.63049394
44	0x3e28219f	0.16419075
45	0x3f8467f7	1.0344228
46	0x3f36fccc	0.7147949
47	0x3fe710a1	1.805195
48	0xbedccb0b	-0.4312366
49	0xbf51e065	-0.81983024
50	0x3dd9e17b	0.1063871
51	0x3e01423b	0.12622921
52	0x3e49bbd9	0.19700564
53	0x3dd709c1	0.10499907
54	0x3e32ed0c	0.17473239
55	0xbb45309f	-0.0030088795
56	0x3f27452b	0.65339917
57	0x3f47cfaa	0.78051245
58	0xbeda5d24	-0.42649186
59	0xbe042f67	-0.12908708
60	0xbdd92512	-0.10602774
61	0xbac9c0ff	-0.00153926
62	0x3e390c15	0.18071015
63	0xbe0a6e6a	-0.13518682
64	0x3d1a72ef	0.037707265
65	0x3f0d4b1c	0.5519273
66	0x3ef327d7	0.47491333
67	0x3f389486	0.7210163
68	0xbe75c7b1	-0.24001957
69	0xbe8ac3a6	-0.27102393
70	0x3e058768	0.13039935
71	0xbe0d7b4b	-0.13816564
72	0x3d029fc6	0.031890653
73	0xbdea578c	-0.114424795
74	0x3e1498fc	0.14511484
75	0x3e1962cb	0.14979093
76	0x3e8f45b5	0.2798287
77	0x3eb86a21	0.3601847
78	0xbe2c06b6	-0.16799435
79	0xbe04189f	-0.12900017
80	0xbb96ee12	-0.004606017
81	0xbd1b5a1b	-0.03792773
82	0x3db3810e	0.087648496
83	0x3c801f14	0.01563982
84	0x3dbccd43	0.09218838
85	0x3f78244a	0.9693037
86	0x3f771577	0.9651713
87	0x3fb75976	1.4324176
88	0xbf0bb5cf	-0.5457429
89	0xbf6dec2c	-0.92938495
90	0x3d78abe9	0.06071082
91	0xbdca9a41	-0.09892703
92	0x3e092e70	0.13396621
93	0xbdaca245	-0.08429388
94	0xbe1f82fa	-0.15577307
95	0xbefc08e2	-0.49225527
96	0xbeacb4f8	-0.33731818
97	0xbf556864	-0.8336241
98	0x3df9cb6e	0.12197004
99	0x3ea6b885	0.32562652
100	0xbe533582	-0.2062588
101	0xbe157ff1	-0.14599587
102	0xbdc9e10f	-0.0985738
103	0x3d8afbd7	0.06786316
104	0x3e72e784	0.23721129
105	0xbd2ee4d1	-0.042698685
106	0x3e1d9e3e	0.15392396
107	0x3dbf7534	0.093485266
108	0xbe05245b	-0.1300215
109	0x3d5e5d5e	0.05428826
110	0xbe077673	-0.13228779
111	0x3e5bc91f	0.2146344
112	0x3e86bb68	0.26314855
113	0xbe40ea00	-0.18839264
114	0xbd52d649	-0.05147389
115	0xbe7ee42e	-0.24891731
116	0xbe2c6713	-0.16836195
117	0xbe334604	-0.17507178
118	0xbd8010dc	-0.06253216
119	0xbd031515	-0.032002527
120	0x3e9e6180	0.30933762
121	0x3e07defb	0.13268654
122	0xbdae0791	-0.08497537
123	0x3e2fbe19	0.1716236
124	0x3db7be2d	0.0897182
125	0x3f01cfe6	0.5070785
126	0x3e6c8b80	0.2310009
127	0x3f162adc	0.5865915
128	0xbe9f4c6c	-0.31112993
129	0xbee08141	-0.43848613
130	0xbe686228	-0.22693694
131	0x3bdc687c	0.0067263227
132	0xbd8d8efb	-0.06912037
133	0xbe186a54	-0.14884311
134	0xbd29d3c7	-0.041461732
135	0xbdc9228c	-0.098210424
136	0xbf01033a	-0.5039555
137	0xbf8e0126	-1.10941
138	0x3f247578	0.64241743
139	0x3ea71770	0.3263507
140	0xbe30b6ba	-0.17257205
141	0xbe8bf3af	-0.27334353
142	0xbe8ae7d3	-0.27129993
143	0xbe19f4fa	-0.15034857
144	0x3e02adc5	0.127616
145	0x3dff02a4	0.124516755
146	0x3e9e1885	0.30878082
147	0x3e67a476	0.2262133
148	0xbe9e75d2	-0.30949265
149	0xbd8046b9	-0.06263489
150	0x3c832fc1	0.016013982
151	0x3d854b72	0.06508531
152	0x3e08b7a4	0.13351303
153	0x3e97d754	0.2965647
154	0xbd713aeb	-0.05889408
155	0x3ee1bcf7	0.4408948
156	0x3f33e902	0.70277417
157	0x3f752217	0.9575514
158	0xbed450b1	-0.41467813
159	0xbe1d691d	-0.15372129
160	0xbd062a54	-0.03275521
161	0xbdea3dd6	-0.114375755
162	0x3dc2825e	0.09497522
163	0xbe1aebbd	-0.1512899
164	0xbb955411	-0.0045571406
165	0xbeaad257	-0.33363602
166	0xbeccfcbe	-0.40036577
167	0xbf216539	-0.6304508
168	0x3eb4aea5	0.35289493
169	0x3ec0fce4	0.3769294
170	0x3bd108ae	0.0063792085
171	0xbd3519ae	-0.044213943
172	0x3b1a0d0b	0.002350631
173	0xbdbedecf	-0.09319841
174	0xbddb1c31	-0.106987365
175	0x3e8eb602	0.27873236
176	0x3f1532cf	0.5828065
177	0x3f295922	0.6615163
178	0xbf12d9eb	-0.57363766
179	0xbe991e57	-0.2990596
180	0x3d8b4049	0.06799371
181	0xbd4e5cb4	-0.050381377
182	0x3de71667	0.1128357
183	0xbd915890	-0.0709697
184	0xbe336289	-0.17518057
185	0xbeecdebc	-0.46263683
186	0xbe9786c1	-0.29594997
187	0xbf0e1270	-0.55496883
188	0x3e881ae3	0.26583013
189	0x3e432331	0.19056393
190	0xbe1b1f3f	-0.15148638
191	0x3cd6d534	0.02622471
192	0xbde6a6b1	-0.112622626
193	0x3d78c069	0.06073037
194	0xbd528a0e	-0.05140119
195	0xbedd3b04	-0.43209088
196	0xbf2e0b0d	-0.6798561
197	0xbf99110e	-1.195833
198	0x3f27208b	0.6528403
199	0x3ee221eb	0.44166502
200	0x3ec89af3	0.39180717
201	0x3e2b7e95	0.16747506
202	0x3eef17d7	0.46697876
203	0x3d815659	0.06315298
204	0xbe0b7832	-0.1362007
205	0x3eed1c9d	0.46310893
206	0x3f326609	0.69686943
207	0x3f843cf0	1.0331097
208	0xbec5957e	-0.38590616
209	0xbe977236	-0.29579324
210	0x3e7c33c5	0.24629124
211	0x3e360b50	0.17777753
212	0xbe87314f	-0.26404807
213	0x3eb53c69	0.35397652
214	0x3db4315d	0.08798478
215	0x3ed9edf5	0.4256436
216	0x3ed9a931	0.42511895
217	0x3f436ae3	0.7633497
218	0xb9d42dc0	-0.00040469877
219	0xbdd36c89	-0.10323436
220	0x3db92b65	0.0904148
221	0x3eb2a2eb	0.34889922
222	0x3e0f23b2	0.1397846
223	0x3e6e78bd	0.23288245
224	0xbe22c04e	-0.15893671
225	0x3e122afb	0.14274208
226	0x3f0d04d3	0.55085486
227	0x3f3c6189	0.73586327
228	0xbe7878f5	-0.24264891
229	0xbdabeb2a	-0.08394463
230	0xbde69e20	-0.11260629
231	0x3e35661d	0.17714734
232	0x3ebdfd73	0.3710743
233	0x3d8de97d	0.069293
234	0x3d877893	0.066147946
235	0x3f024121	0.5088063
236	0x3f41853e	0.75593936
237	0x3f8811e5	1.0630461
238	0xbf5094a3	-0.814768
239	0xbeb00f6f	-0.34386775
240	0x3c968175	0.018372277
241	0xbe549bd5	-0.2076257
242	0xbe575060	-0.21026754
243	0xbdc9bd2f	-0.09850537
244	0xbd9898b4	-0.07451001
245	0x3ed546bf	0.41655537
246	0x3f42e975	0.7613748
247	0x3f80024d	1.0000702
248	0xbf27f167	-0.65602726
249	0xbebf95f2	-0.37419087
250	0xbeb87499	-0.36026457
251	0x3ef8d653	0.48601016
252	0xbdca12ab	-0.09866842
253	0x3ef21a1c	0.47285545
254	0xbd14c400	-0.036319733
255	0xbe85c4ac	-0.2612661

rnn.weight_hh_l0 f4 [256, 64]
0	0x3aea3000	0.0017867088
1	0x3dde8ef0	0.10867107
2	0xbc0c4350	-0.00856097
3	0x3db84238	0.08997005
4	0x3df7ddc4	0.12102845
5	0xbdd1683a	-0.10224958
6	0x3d1709e0	0.036874652
7	0x3cb46d88	0.022024885
8	0x3da22aaa	0.07918294
9	0xbd679488	-0.056538135
10	0x3bf24580	0.007393539
11	0xbdb16398	-0.08661574
12	0x3d3e56b4	0.046469405
13	0xbd96001e	-0.07324241
14	0xbddcca68	-0.107807934
15	0x3da437f6	0.08018486
16	0xbc907ef8	-0.017638668
17	0x3dfd877a	0.12379356
18	0x3d3714d8	0.044697613
19	0xbd488c14	-0.048961714
20	0x3df00dcc	0.117213815
21	0x3de48438	0.11158031
22	0x3cfb3ac0	0.030667663
23	0x3d8f2ef8	0.069913805
24	0x3db7c15a	0.08972426
25	0x3d68bcd4	0.056820706
26	0xbd909586	-0.07059769
27	0xbbd11da0	-0.0063817054
28	0xbd97a22e	-0.0740398
29	0x3cfb8448	0.030702725
30	0xbd5cd3a8	-0.05391279
31	0x3dc18d28	0.094507515
32	0xbddf89d4	-0.109149605
33	0xbd528774	-0.05139871
34	0x3d5b2690	0.053503573
35	0x3d828658	0.0637328
36	0x3d9cc50a	0.0765477
37	0x3c18ea90	0.009333268
38	0xbd2d0190	-0.04223782
39	0xbd83c75e	-0.06434511
40	0x3d62e21c	0.055391416
41	0xbd866b74	-0.06563464
42	0xbc11d270	-0.00890027
43	0xbdcf8894	-0.10133472
44	0xbdacf76c	-0.084456295
45	0xbd4a5350	-0.04939586
46	0x3caf9e50	0.021437794
47	0x3d822f32	0.06356658
48	0x3df791a6	0.12088327
49	0xbde5b7e8	-0.11216718
50	0x3da897ac	0.08232054
51	0xbd68f4fc	-0.05687426
52	0xbdb01d2c	-0.08599314
53	0xbd23b80c	-0.039970443
54	0xbd1cc3f8	-0.038272828
55	0xbab23700	-0.0013596714
56	0xbd353898	-0.044243425
57	0xbd7788b4	-0.060433105
58	0xbd5378ac	-0.051628754
59	0x3d911674	0.07084361
60	0x3d6dcf30	0.058058918
61	0xbcc9edf0	-0.02464959
62	0xbde2a292	-0.11066164
63	0x3c90a408	0.017656341
64	0x3c563960	0.013075203
65	0x3d36ce44	0.044630304
66	0xbc4ed9a0	-0.012625128
67	0x3ddcd152	0.10782112
68	0x3da0a19a	0.07843323
69	0x3d2e98b8	0.042626113
70	0x3ddf156a	0.10892756
71	0x3cc39ac8	0.023877516
72	0x3c737200	0.014858723
73	0xbcc59cc0	-0.024122596
74	0x3d37f0ac	0.044907257
75	0xbd3c078c	-0.045905635
76	0x3dfd8e1c	0.12380621
77	0x3d8484d8	0.064706504
78	0x3d824ba2	0.06362082
79	0xbdb4273a	-0.087965444
80	0x3c572440	0.013131201
81	0xbd6e48f4	-0.058175042
82	0x3c40d180	0.011768699
83	0xbbb1e7e0	-0.005429253
84	0xbdbbdcb6	-0.09172957
85	0x3d562f3c	0.05229114
86	0xbd3812bc	-0.04493974
87	0x3da8acd4	0.08236089
88	0xbd2ba38c	-0.041904017
89	0xbcf83840	-0.03030026
90	0xbd59742c	-0.053089306
91	0xbdada55c	-0.084788054
92	0x3cecb468	0.028894618
93	0x3dc73c04	0.09728244
94	0xbc897078	-0.016777262
95	0x3cf4a8d0	0.029865652
96	0xbc6c1f50	-0.014411762
97	0xbdc1c6f2	-0.09461774
98	0x3d3a28e4	0.045449153
99	0x3de15c64	0.1100395
100	0x3dbebe5c	0.09313652
101	0xbda9d7da	-0.082931235
102	0xbcb6beb8	-0.022307739
103	0xbcbeb988	-0.023281828
104	0xbdb833da	-0.08994265
105	0x3da3d704	0.07999995
106	0x3d2250d8	0.03962788
107	0xbdba0f36	-0.090849325
108	0xbd598440	-0.05310464
109	0xbdd49992	-0.10380854
110	0xbcd2dae8	-0.025739148
111	0x3de46e12	0.11153807
112	0x3db9f472	0.09079827
113	0xbdfea5c2	-0.124339595
114	0xbd2b8158	-0.0418714
115	0xbd04b06c	-0.03239481
116	0x3ca41228	0.020028189
117	0x3dd6d86c	0.10490498
118	0xbd113108	-0.03544715
119	0xbde71610	-0.11283505
120	0x3cbcbdc8	0.023039714
121	0xbcc8fb58	-0.024533913
122	0xbc5ebc60	-0.013594717
123	0x3d4999b0	0.049218833
124	0x3d99db0a	0.075124815
125	0xbc6efb50	-0.014586285
126	0x3d16d1c8	0.036821157
127	0x3c1d1900	0.00958848
128	0xbd9ff03a	-0.078094915
129	0x3db0a776	0.08625691
130	0xbde3c546	-0.11121611
131	0xbd7836d0	-0.06059915
132	0xbcf2d180	-0.029640913
133	0xbdd075c4	-0.10178712
134	0xbd527880	-0.05138445
135	0xbd880e00	-0.06643295
136	0x3d6cac7c	0.05778168
137	0xbc037c80	-0.008025289
138	0x3dc6c49c	0.09705469
139	0x3d706620	0.058691144
140	0xbc520080	-0.012817502
141	0x3dac635a	0.08417387
142	0x3ddb5d1c	0.107111186
143	0xbc5e6d90	-0.013575926
144	0xbdc2241c	-0.094795436
145	0x3cbd4038	0.023101911
146	0xbc97d120	-0.018532336
147	0x3ce40a60	0.027836978
148	0xbdef5c22	-0.11687495
149	0x3d046160	0.032319427
150	0x3db320be	0.087464795
151	0x3dd344da	0.10315867
152	0x3d9d82d2	0.076909676
153	0x3cb87b58	0.022519752
154	0xbd25be94	-0.040464953
155	0xbc90a2a8	-0.017655686
156	0x3d8c04f2	0.06836881
157	0x3def83a6	0.11695032
158	0xbcbff308	-0.023431316
159	0x3daa731c	0.083227366
160	0x3dfe6b5a	0.124228194
161	0x3b3cea00	0.0028825998
162	0xbde4bac8	-0.11168438
163	0x3c2a9930	0.010412499
164	0xbd30b7b4	-0.043143943
165	0x3d95690c	0.07295427
166	0xbdb73c46	-0.08947043
167	0x3dcc00fa	0.09961124
168	0xbdb2b0ca	-0.08725126
169	0xbd7ba910	-0.061440527
170	0x3ded6662	0.115917936
171	0xbd8dc13a	-0.06921621
172	0xbd7d8248	-0.061891824
173	0xbda25c16	-0.0792772
174	0x3de880e6	0.113527104
175	0xbd90175c	-0.070357054
176	0x3dac5608	0.08414847
177	0x3cec1308	0.028817669
178	0xbc81ae98	-0.015830323
179	0x3dfb26c6	0.12263255
180	0x3d19f4e0	0.037587047
181	0xbd27a798	-0.040931314
182	0xbd7d9b40	-0.061915636
183	0xbdf8231c	-0.121160716
184	0xbde5f122	-0.11227633
185	0xbd17a458	-0.037021965
186	0xbcc82af0	-0.024434537
187	0x3c85dfb0	0.016342014
188	0xbd653f58	-0.055968612
189	0xbd6fc454	-0.058536842
190	0xbddeffec	-0.10888657
191	0x3c4d8510	0.012543932
192	0xbd7dccec	-0.061963007
193	0xbd9ee422	-0.07758357
194	0x3dfc4d3e	0.1231942
195	0x3d2b374c	0.041800782
196	0x3dfe4d2c	0.12417063
197	0x3d405904	0.046959892
198	0x3dae197a	0.08500953
199	0x3deaacb2	0.1145872
200	0x3df20b72	0.11818589
201	0x3d1fe6d4	0.039038494
202	0x3ccc0518	0.024904773
203	0xbd49f42c	-0.049305126
204	0xbd9ae83c	-0.075638264
205	0xbce03348	-0.027368203
206	0x3dc8bd1e	0.09801696
207	0x3dc57a88	0.096425116
208	0xbdf5a25e	-0.1199386
209	0x3b170d40	0.002304867
210	0x3d9dffa2	0.07714774
211	0x3da278f0	0.07933223
212	0x3cbb40d0	0.022858053
213	0xbdd0c3ce	-0.10193597
214	0x3c2b5f70	0.010459766
215	0xbd2cd030	-0.04219073
216	0xbc57aa90	-0.013163224
217	0x3db348ee	0.087541446
218	0x3d188818	0.037239164
219	0x3dd0ab7a	0.101889566
220	0x3dcaab44	0.098959476
221	0x3d951f48	0.07281357
222	0xbdca1970	-0.09868133
223	0x3d09a5ac	0.033605263
224	0x3d9ffae6	0.07811527
225	0x3ceb53b0	0.028726429
226	0xbd28a368	-0.04117146
227	0x3d829a04	0.063770324
228	0x3dc8c3fc	0.09803006
229	0x3c40a740	0.0117586255
230	0x3ddbd414	0.1073381
231	0x3da83522	0.08213259
232	0xbc1c1c50	-0.009528235
233	0x3dfe2340	0.12409067
234	0x3c334450	0.01094158
235	0xbd090bc0	-0.03345847
236	0xbd5a5764	-0.053306
237	0xbde6c1de	-0.11267446
238	0xbd964722	-0.07337786
239	0x3dec50e4	0.11538866
240	0xbc89e0c0	-0.016830802
241	0x3ddfbe70	0.10924995
242	0xbd0609ec	-0.032724306
243	0x3de85b68	0.11345559
244	0x3d08bd70	0.033383787
245	0x3d983f5a	0.07433958
246	0xbc8c7888	-0.017147318
247	0xbdd3ac2e	-0.10335575
248	0xbd8386cc	-0.06422195
249	0x3d664748	0.056220323
250	0x3dae77c0	0.08518934
251	0x3cae3248	0.02126421
252	0xbd939f64	-0.07208136
253	0xbdb466fc	-0.08808705
254	0x3d85eeaa	0.06539662
255	0xbd6e3da0	-0.05816424

rnn.bias_ih_l0 f4 [256]
0	0x3db2df87	0.08734041
1	0x3e43b51f	0.19112061
2	0x3dd33a73	0.10313883
3	0x3e272df4	0.16326123
4	0xbc16cb2c	-0.009203713
5	0xbbd73c4e	-0.006568468
6	0xbe043821	-0.12912036
7	0xbcc7cd7d	-0.024389977
8	0xbd16c08e	-0.03680473
9	0x3d4ff43d	0.050770033
10	0x3d5e379e	0.05425226
11	0x3e603e0e	0.21898672
12	0x3dc925e9	0.09821684
13	0x3dd1dac5	0.10246805
14	0x3d625458	0.055256218
15	0x3ed7aeb7	0.42125484
16	0xbe078c3e	-0.13237092
17	0xbd7ed1bc	-0.062211737
18	0x3d253652	0.040335007
19	0x3c744a66	0.014910316
20	0x3ef06223	0.46949872
21	0x3d1ec29d	0.038759816
22	0x3e2a26e1	0.16616394
23	0x3cfe5bc5	0.031049618
24	0x3e1c7355	0.1527837
25	0x3ec45e40	0.38353157
26	0x3c42737b	0.011868353
27	0xbc528c1c	-0.0128507875
28	0x3d3eba99	0.046564672
29	0x3ee0e2b9	0.43922976
30	0x3ebf9c35	0.37423864
31	0x3e06f09a	0.1317772
32	0x3e15242f	0.14564584
33	0xbdabea40	-0.08394289
34	0x3e5b8c1f	0.2144017
35	0x3e1a8693	0.15090398
36	0x3e976846	0.29571742
37	0x3d450eba	0.048109747
38	0x3d1057bd	0.035239924
39	0xbd7c8e63	-0.061659228
40	0xbd5ea0ab	-0.054352444
41	0x3cdead6c	0.027182303
42	0x3d05f95e	0.03270852
43	0x3e9a36fe	0.3012008
44	0xbde5bbaa	-0.11217435
45	0x3e57571a	0.2102932
46	0xbd6932f1	-0.056933347
47	0xbd7c9fbd	-0.061675776
48	0x3cbf2350	0.023332268
49	0x3f0c603b	0.54834336
50	0x3e158840	0.14602757
51	0xbbe4f443	-0.006987126
52	0x3e85a1b3	0.2609993
53	0x3e70aab3	0.23502617
54	0x3e144966	0.14481124
55	0x3d306b95	0.04307135
56	0x3e97cb69	0.29647377
57	0x3c0844cf	0.0083171865
58	0x3d90f60f	0.07078182
59	0x3ed911fa	0.42396528
60	0x3e0e9302	0.13923267
61	0x3ebb85a1	0.36625388
62	0x3cb11c2a	0.021619875
63	0x3ebd97ab	0.37029776
64	0x3df7f8be	0.12107991
65	0xbcefc878	-0.029270396
66	0x3d49d440	0.049274683
67	0x3d96c298	0.073613346
68	0x3cdc4f20	0.026893198
69	0x3dce5048	0.10073906
70	0x3d5c75ac	0.05382316
71	0x3d574f38	0.052565783
72	0x3c8f8b78	0.017522559
73	0x3d18bf3c	0.03729175
74	0xbdad30a4	-0.08456543
75	0x3dd7602e	0.10516392
76	0x3dfa2384	0.12213805
77	0x3d204ddc	0.039136752
78	0xbd852cea	-0.06502707
79	0x3d0c17a4	0.034202233
80	0x3d82fdfa	0.063960984
81	0x3d5a3cec	0.053280756
82	0x3ccaa7f8	0.024738297
83	0xbd775a90	-0.0603891
84	0xbd2fe04c	-0.042938516
85	0x3dfa917a	0.12234779
86	0x3dd6b35a	0.10483427
87	0xbd530fa4	-0.051528588
88	0xbd9cecf6	-0.07662384
89	0xbc9dce40	-0.019263387
90	0xbca3fd18	-0.020018145
91	0xbd2ef4e8	-0.04271403
92	0xbd9f2e4a	-0.07772501
93	0x3d3a0514	0.045415
94	0xbdad812e	-0.08471905
95	0xbccedee8	-0.025252774
96	0x3d9ed6c2	0.077558056
97	0xbdb4a278	-0.08820051
98	0x3df58c42	0.11989643
99	0x3d16bfa0	0.03680384
100	0xbc874180	-0.016510725
101	0x3dfbafc6	0.122893855
102	0xbce267a0	-0.027637303
103	0x3ba6a8c0	0.0050860345
104	0x3de0de10	0.10979855
105	0x3c64c810	0.013963714
106	0x3df3cc74	0.11904231
107	0xbd795084	-0.0608678
108	0x3d01a5ec	0.031652376
109	0x3db51ade	0.08843015
110	0x3d0dc0a4	0.034607545
111	0xbdb4c4d0	-0.088266015
112	0x3dd224f4	0.102609545
113	0xbd251660	-0.04030454
114	0xbcb0da18	-0.02158837
115	0x3df608c6	0.12013392
116	0xbd707ae4	-0.058710948
117	0x3cffac08	0.03120996
118	0xbdd06172	-0.10174836
119	0x3d88890e	0.06666766
120	0x3deeaf1a	0.11654492
121	0xbd85f59e	-0.065409884
122	0x3a900400	0.001098752
123	0x3c813c88	0.015775934
124	0x3d82e0be	0.063905224
125	0xbd077e68	-0.033079535
126	0xbd96be60	-0.0736053
127	0xbd0bf4c0	-0.03416896
128	0xbc2247bf	-0.009904801
129	0x3c5e4131	0.0135653475
130	0xbd409873	-0.047020387
131	0x3dcfd241	0.101475246
132	0x3db82f58	0.08993405
133	0xbd6d580d	-0.0579453
134	0xbd8d244e	-0.0689169
135	0x3dbda9c7	0.09260898
136	0x3db4fa33	0.08836784
137	0x3d408cf3	0.04700942
138	0x3d6d1e2b	0.0578901
139	0x3e5626fd	0.2091331
140	0x3d660b45	0.05616309
141	0xbdd2d928	-0.102953255
142	0xbd2003d3	-0.039066147
143	0xbdd079eb	-0.10179504
144	0xbd872fa8	-0.066008866
145	0x3d24057f	0.040044304
146	0xbd33f598	-0.04393539
147	0xbd1f48c8	-0.03888777
148	0x3e198e26	0.14995632
149	0xbd155258	-0.036455482
150	0xbd20d96a	-0.039269842
151	0x3de2c4d7	0.110727005
152	0x3d953616	0.07285707
153	0x3d6aad1b	0.057293992
154	0xbe3a884d	-0.18216057
155	0xbd5d2efb	-0.053999882
156	0xbddcec6e	-0.10787283
157	0xbc9bb046	-0.019004952
158	0x3df5ea31	0.12007559
159	0xbe0a21a8	-0.13489401
160	0x3e5a0a9a	0.21293107
161	0xbdfff7ab	-0.12498411
162	0x3d6f2354	0.0583833
163	0x3e413ce3	0.18870883
164	0xbe362b75	-0.17790015
165	0xbe084363	-0.13306956
166	0xbe171dac	-0.14757413
167	0x3dfd9dd1	0.12383617
168	0x3c59a871	0.0132847885
169	0x3da277c3	0.07932999
170	0xbd54bf5a	-0.0519403
171	0x3e024cef	0.1272466
172	0x3cfaa5f0	0.030596703
173	0x3d7bf74a	0.06151513
174	0x3e3f2c86	0.18669328
175	0x3d9a0be4	0.07521799
176	0xbdd803dc	-0.10547611
177	0xbe0543f2	-0.130142
178	0xbddf065c	-0.10889885
179	0x3ddf062f	0.10889851
180	0xbe0c73ab	-0.13715999
181	0x3e15090f	0.14554237
182	0x3d2aa383	0.041659843
183	0xbd997221	-0.074924715
184	0x3dd2082e	0.102554664
185	0xbcb1d08d	-0.02170589
186	0xbd02f97d	-0.03197621
187	0xbdd9525f	-0.10611414
188	0x3d961b06	0.07329373
189	0x3e0e2c4b	0.13884084
190	0x3d96f177	0.073702745
191	0xba3dd714	-0.0007241827
192	0x3e5b2280	0.2139988
193	0x3e1e599c	0.15463871
194	0xbc9165f1	-0.017748805
195	0x3c90771d	0.017634923
196	0x3da1a12c	0.07892069
197	0x3d96128a	0.07327755
198	0x3dbd6ac4	0.092488796
199	0x3d2d7dbf	0.04235625
200	0x3d3787d6	0.044807278
201	0x3d55cc3d	0.05219673
202	0x3d06db37	0.032923903
203	0x3de58a3e	0.11208008
204	0x3e67b3c8	0.22627175
205	0x3c89965a	0.016795326
206	0x3e596a28	0.21231902
207	0x3e8183e0	0.25295925
208	0xbc10fc66	-0.008849239
209	0xbdf026e0	-0.11726165
210	0x3e03e896	0.12881693
211	0x3da04154	0.0782496
212	0x3e455002	0.19268802
213	0x3cee7758	0.029109642
214	0x3e779d4e	0.241811
215	0x3e1b7fd9	0.15185489
216	0x3dfe859d	0.124278285
217	0x3ebc5b4d	0.36788407
218	0x3e0bcf36	0.13653263
219	0x3dbee3b2	0.09320773
220	0x3e2eb394	0.17060691
221	0x3eaf785e	0.3427152
222	0x3e21909a	0.15777817
223	0x3db07a6a	0.08617099
224	0xbd58babb	-0.052912455
225	0x3dbc2974	0.09187594
226	0x3e5209af	0.20511506
227	0x3dee6d1a	0.11641903
228	0x3e7e5716	0.24837908
229	0x3dd4cd35	0.10390703
230	0xbd845ed8	-0.064634025
231	0x3dfee759	0.1244647
232	0x3dbbb3f8	0.09165186
233	0x3df107fb	0.117691
234	0xbdd07242	-0.10178043
235	0x3e3974d7	0.18110977
236	0xbd8d7809	-0.069076605
237	0x3eb18df7	0.34678623
238	0x3e04020f	0.1289141
239	0x3e1b19d0	0.15146565
240	0xbb45bf1e	-0.003017373
241	0x3e33c2f2	0.17554834
242	0x3d49fd21	0.04931367
243	0x3e019e9f	0.12658165
244	0x3e7a443d	0.24440093
245	0x3cb6e1c4	0.02232445
246	0x3c637c84	0.013884667
247	0x3b496828	0.0030732248
248	0x3e934bc6	0.28768748
249	0x3d9972aa	0.074925736
250	0xba84d680	-0.0010134727
251	0x3ec8c893	0.39215526
252	0x3e8bfe3b	0.273424
253	0x3e36e004	0.17858893
254	0x3db94421	0.09046198
255	0x3e7cf630	0.24703288

rnn.bias_hh_l0 f4 [256]
0	0x3e334721	0.17507602
1	0x3df8987d	0.1213846
2	0xbcb4fcf5	-0.022093276
3	0x3dd446a0	0.10365033
4	0x3e0a08fc	0.1347999
5	0x3d67133b	0.056414824
6	0x3d85f456	0.06540744
7	0x3c4fab71	0.012675152
8	0x3e116bc8	0.14201272
9	0x3e10eefd	0.14153667
10	0xbd47844e	-0.04871016
11	0x3d1f6cd7	0.038922157
12	0x3d4c1a9d	0.049830068
13	0x3d9c311d	0.07626555
14	0x3e296227	0.16541348
15	0x3e74397f	0.23850058
16	0xbd0ebba8	-0.03484693
17	0xbb2e4b36	-0.0026595122
18	0x3dee0b3c	0.116232365
19	0x3d19e86e	0.037575178
20	0x3ef407f0	0.47662306
21	0x3de62c86	0.11238961
22	0x3ecbaf4e	0.39782184
23	0x3c1f97b2	0.009740757
24	0x3e676c7e	0.2259998
25	0x3ee01540	0.43766212
26	0x3e0a837d	0.13526721
27	0xbd44e145	-0.048066396
28	0x3d8be99b	0.06831666
29	0x3ece9a2a	0.40351993
30	0x3e7f6c37	0.24943624
31	0x3cc8801f	0.024475155
32	0x3df448b0	0.119279265
33	0x3e082bea	0.13298002
34	0x3e7a1b02	0.24424365
35	0x3dec593d	0.11540458
36	0x3e0c2a0d	0.13687916
37	0x3dce1703	0.10062983
38	0x3cda4d51	0.026648195
39	0xbcd9baa3	-0.026578253
40	0xbd9b3f7b	-0.07580467
41	0x3d5d01e1	0.05395687
42	0x3d5e7868	0.054314047
43	0x3e8092a4	0.25111878
44	0x3da5b1e8	0.080905735
45	0x3e6e1114	0.23248702
46	0x3d3266d1	0.043555085
47	0x3d2c7ae7	0.042109396
48	0x3dcb7e58	0.099362075
49	0x3f0967c2	0.53673947
50	0x3d8f91fa	0.07010265
51	0xbca97680	-0.020686388
52	0x3ddaf99a	0.10692139
53	0x3d85efdb	0.065398894
54	0x3e10eb9c	0.14152378
55	0xbd45c6f7	-0.04828545
56	0x3e9f709a	0.31140596
57	0x3d746331	0.05966491
58	0xbd5bd72e	-0.05367201
59	0x3ea52210	0.3225255
60	0x3e919a5a	0.28438073
61	0x3ecfb545	0.40567985
62	0xbd950b7c	-0.07277581
63	0x3eae152f	0.34000537
64	0x3d2a9040	0.041641474
65	0xbdbe9e74	-0.09307566
66	0xbd6291dc	-0.055314884
67	0xbd272d44	-0.040814653
68	0x3d47f064	0.04881324
69	0xbddf9f9a	-0.109191135
70	0x3d3b09e8	0.045663744
71	0xbddcc2f8	-0.10779375
72	0x3dcee5f6	0.10102455
73	0xbdeba5e6	-0.11506252
74	0xbdb59e1c	-0.088680476
75	0x3cc7e7b0	0.02440247
76	0x3cabf188	0.020989195
77	0xbde69936	-0.112596914
78	0xbd252ccc	-0.040325925
79	0x3ddf5e22	0.10906626
80	0x3b7cd500	0.0038579106
81	0x3ae0ef00	0.0017161071
82	0x3de14066	0.10998611
83	0x3d7ca368	0.061679274
84	0xbcad2490	-0.021135598
85	0x3d964952	0.073382035
86	0x3d7a8480	0.061161518
87	0x3d92d47e	0.07169436
88	0x3d967c64	0.073479444
89	0xbc79ab70	-0.015238628
90	0x3dd13a98	0.10216254
91	0xbd8349ae	-0.06410538
92	0xbd4b34bc	-0.04961084
93	0xbd3057e0	-0.043052554
94	0x3dc24076	0.09484951
95	0xbddc58ec	-0.10759148
96	0x3ddf6e48	0.10909706
97	0xbd3d4e34	-0.04621716
98	0x3c66d5e0	0.014089078
99	0xbda090ae	-0.078400955
100	0xbcafe9a8	-0.02147372
101	0x3def0f5c	0.116728514
102	0x3d8f7554	0.070048004
103	0x3d8bc5b2	0.06824817
104	0xbd6a0994	-0.05713804
105	0x3d9ab5f6	0.075542375
106	0xbd63136c	-0.055438444
107	0x3df8d6b4	0.12150326
108	0x3d945666	0.07243042
109	0xbdc7899c	-0.09743044
110	0x3d974fac	0.07388243
111	0xbc590be0	-0.01324746
112	0x3ccfaf70	0.02535221
113	0xbdd759d4	-0.1051518
114	0xbce03500	-0.027369022
115	0x3debeb58	0.11519498
116	0xbde59bb6	-0.1121134
117	0x3bd7b3c0	0.006582707
118	0xbd229714	-0.03969486
119	0xbd8f0a3e	-0.069843754
120	0x3da66944	0.081255466
121	0x3dbb4676	0.09144299
122	0x3be737e0	0.0070562214
123	0x3db3f02c	0.087860435
124	0x3db270ee	0.08712946
125	0x3d8761e0	0.06610465
126	0x3d9b42f2	0.07581128
127	0x3d17ae8c	0.037031695
128	0xbdfb840c	-0.12281045
129	0xbde3d079	-0.111237474
130	0xbd921696	-0.07133214
131	0x3d07d9e4	0.03316678
132	0x3d42b708	0.047537833
133	0xbdd48250	-0.10376418
134	0x3bbb773d	0.0057210014
135	0xbda0e061	-0.07855297
136	0x3d3f77f0	0.04674524
137	0xbdd34050	-0.10315001
138	0x3e0cd83f	0.13754366
139	0x3e335e71	0.17516495
140	0x3d4ee177	0.05050799
141	0x3b6790f8	0.003533421
142	0x3d9eb6a5	0.077496804
143	0xbce78b6a	-0.02826472
144	0x3d1b6244	0.03793551
145	0xbe374a5c	-0.1789946
146	0xbe498401	-0.19679262
147	0x3d935710	0.0719434
148	0xbcdef6ad	-0.027217234
149	0xbe1361f9	-0.14392842
150	0x3e165805	0.14682014
151	0x3e114370	0.14185882
152	0x3e0ccf9d	0.13751073
153	0x3ddd204a	0.10797174
154	0xbdd64d72	-0.1046399
155	0x3ded7a37	0.11595576
156	0xbda26d26	-0.07930975
157	0xbda19df5	-0.07891456
158	0x3e01c29f	0.12671898
159	0xbe1d217e	-0.15344808
160	0x3e477c96	0.1948112
161	0xbd98353b	-0.07432028
162	0xbc3da904	-0.011575941
163	0x3e47e91f	0.19522522
164	0xbe5ff5a7	-0.21871053
165	0xbe47b83d	-0.19503875
166	0xbe3bfb5c	-0.18357605
167	0x3e3279d8	0.17429292
168	0xbe2b9f9b	-0.16760103
169	0x3cdca4d8	0.026934072
170	0x3df3f00e	0.11911021
171	0xbd59bf79	-0.05316112
172	0x3d4ea6e6	0.050452136
173	0x3de88634	0.11353722
174	0x3e159ab2	0.14609793
175	0xbd9546ad	-0.07288871
176	0xbe4f8805	-0.20266731
177	0xbcdcd460	-0.026956737
178	0xbd97f94a	-0.07420595
179	0x3d89f223	0.06735637
180	0x3d69d2ba	0.05708573
181	0x3df34a22	0.11879374
182	0x3db65f6a	0.089049175
183	0xbdc6531f	-0.09683823
184	0x3e098155	0.13428243
185	0xbcfec27b	-0.031098595
186	0x3d11376f	0.035453256
187	0xbd5eae6b	-0.054365557
188	0xbcf5c8e1	-0.030003013
189	0xbd88cf33	-0.06680145
190	0x3e2da2dd	0.16956659
191	0xbe28fabb	-0.16501896
192	0x3e808d27	0.2510769
193	0x3d059b5a	0.032618858
194	0xbcc55521	-0.024088444
195	0x3dad59dd	0.08464406
196	0xbcd064e6	-0.025438737
197	0x3de6ca7c	0.112690896
198	0xbd92db00	-0.07170677
199	0x3d372c07	0.044719722
200	0x3dc065aa	0.09394391
201	0xbd92f09e	-0.071748
202	0xbd335591	-0.043782774
203	0x3e1d9a80	0.15390968
204	0x3b32d07f	0.0027284918
205	0x3dc1b544	0.09458402
206	0x3e5f11d8	0.2178415
207	0x3eaa4184	0.3325311
208	0x3dcfc581	0.10145093
209	0xbdbc6de8	-0.092006505
210	0x3d48aa7f	0.048990723
211	0xbde8ebeb	-0.11373123
212	0x3eab243c	0.33426082
213	0x3bc8721f	0.00611712
214	0x3e2a037a	0.16602889
215	0x3e3520ab	0.17688243
216	0x3e2dc072	0.16967943
217	0x3e90719d	0.2821168
218	0x3e3b0384	0.1826306
219	0x3de75492	0.112954274
220	0x3e4bcd75	0.19902594
221	0x3ebb5e94	0.36595595
222	0x3df7f939	0.12108082
223	0x3e097af4	0.13425809
224	0xbc969a08	-0.018383995
225	0xbcc67c74	-0.024229266
226	0x3e0c3abb	0.13694279
227	0x3e0d9bc0	0.13828945
228	0x3d4da016	0.050201498
229	0x3e2dd93a	0.16977397
230	0x3e0539a6	0.13010272
231	0x3e897c4e	0.2685265
232	0x3d889653	0.06669297
233	0x3e0e8c6a	0.13920751
234	0x3d555bf0	0.05208963
235	0x3e469871	0.1939409
236	0xbdd9d30f	-0.10635959
237	0x3e4a236d	0.19740076
238	0x3e0675a8	0.1313082
239	0xbd4981b1	-0.04919595
240	0x3df09975	0.117480196
241	0x3e3c84dc	0.18410057
242	0x3d248a6b	0.04017107
243	0xbd4ea8bb	-0.050453883
244	0x3e15834f	0.14600872
245	0x3e2a5deb	0.1663739
246	0x3e29502c	0.1653449
247	0xbd858d4a	-0.065210894
248	0x3e0eb639	0.139367
249	0xbd57ece2	-0.052716143
250	0xbe1f5971	-0.15561463
251	0x3e80aaac	0.25130212
252	0x3e646731	0.2230499
253	0x3e3f9ee0	0.1871295
254	0x3cd89324	0.02643735
255	0x3e22f8a6	0.15915164

rnn.weight_ih_l1 f4 [256, 64]
0	0x3d3fb487	0.046803024
1	0x3e49abcb	0.1969444
2	0xbdfa6526	-0.12226324
3	0x3d215f18	0.03939733
4	0x3e2c8381	0.1684704
5	0xbd9c851a	-0.076425746
6	0xbc959f16	-0.018264335
7	0xbd6ec303	-0.058291446
8	0xbd8c9f11	-0.06866277
9	0x3dba42da	0.09094782
10	0x3dbb8fcb	0.09158286
11	0xbca3aa3f	-0.01997864
12	0x3e3df66c	0.18551034
13	0x3d1bc2f9	0.038027737
14	0x3c63eca9	0.013911405
15	0xbdb6dc93	-0.0892879
16	0xbcd8f759	-0.026485132
17	0x3c4c4df8	0.012469761
18	0x3e2954f9	0.16536321
19	0xbdadcfbd	-0.084868886
20	0xbd986e43	-0.07442906
21	0xbd2f3dae	-0.04278343
22	0xbc7dd8bf	-0.015493571
23	0xbd9eee8c	-0.07760343
24	0xbd50e2e2	-0.050997622
25	0x3efe71d3	0.49696216
26	0xbe085acf	-0.1331589
27	0xbce26fa5	-0.027641127
28	0xbda98b64	-0.0827854
29	0x3e00fd17	0.12596546
30	0x3c4be91b	0.012445713
31	0xbda6bd1b	-0.08141538
32	0xbe1b4cd7	-0.15166031
33	0x3ac247a9	0.0014822382
34	0xbda0567d	-0.07828996
35	0xbc145e4b	-0.009055684
36	0xbe2ceb13	-0.16886549
37	0x3d251321	0.040301446
38	0xbd813e17	-0.06310671
39	0xbd43b57f	-0.04778051
40	0x3d079b6c	0.033107206
41	0xbe0db9c0	-0.13840389
42	0xbc73e057	-0.01488503
43	0x3e381ffe	0.17980954
44	0x3cf4ac14	0.02986721
45	0x3e6060c9	0.2191192
46	0x3bb238cb	0.005438899
47	0xbababedb	-0.0014247553
48	0xbc2727eb	-0.010202388
49	0xbe32f263	-0.17475276
50	0xbd9b2c8c	-0.07576856
51	0x3c79a1c5	0.015236323
52	0x3d993f17	0.074827366
53	0xbca5f883	-0.020260101
54	0x3e26b8f8	0.16281497
55	0xbdd6451d	-0.10462401
56	0x3daf4772	0.08558549
57	0x3dae2452	0.08503021
58	0x3d917ea3	0.07104232
59	0xbe751dbd	-0.23937126
60	0x3d33b7a7	0.043876316
61	0xbebc39a2	-0.3676272
62	0x3d003d97	0.031308737
63	0x3d7694df	0.06020057
64	0xbe73be3e	-0.2380304
65	0x3e64b20b	0.22333543
66	0xbdcaf6bb	-0.09910341
67	0x3cd1227e	0.025529142
68	0x3dc8dedf	0.09808134
69	0xbd4b3ba8	-0.04961744
70	0x3d7d79af	0.061883625
71	0x3d12e12f	0.035859283
72	0x3cec9046	0.028877389
73	0xba80bd52	-0.0009822047
74	0xbe52ded0	-0.20592809
75	0x3c9143bb	0.017732492
76	0xbda152cf	-0.078771226
77	0x3c88281c	0.016620688
78	0x3d43e80a	0.04782871
79	0xbe90b505	-0.28263107
80	0x3c44a22e	0.012001557
81	0xbe22fa69	-0.15915836
82	0x3c8d5be1	0.017255725
83	0x3d83f623	0.06443431
84	0x3e6c80dd	0.23096032
85	0x3e08dd7a	0.13365737
86	0x3ebe49e3	0.37165746
87	0x3e468e0a	0.19390121
88	0x3eb685cd	0.35648957
89	0x3f3b5738	0.7317996
90	0xbe016f76	-0.12640175
91	0x3daf011d	0.08545134
92	0xbe59f76f	-0.21285795
93	0xbe1b077c	-0.15139574
94	0x3e4d1b72	0.20030001
95	0xbc8ffa30	-0.017575353
96	0xbc9554d3	-0.018228924
97	0xbd9396f8	-0.072065294
98	0xbdcb8e16	-0.0993921
99	0x3dbf9ef2	0.09356488
100	0xbe8d01d7	-0.27540466
101	0xbd69f926	-0.057122372
102	0xbd068dca	-0.032850064
103	0x3df47e98	0.11938208
104	0x3dcb52b3	0.09927883
105	0x3da74324	0.08167103
106	0x3b89eca5	0.0042091184
107	0x3e95f339	0.29287127
108	0xbd8a71aa	-0.06759961
109	0x3ea3e65e	0.32011694
110	0xbd275694	-0.04085405
111	0xbdc1aabb	-0.094563924
112	0x3b7771b4	0.0037756981
113	0xbf23b9e4	-0.6395552
114	0xbd0af0a6	-0.033920906
115	0x3e1aaf8e	0.15106031
116	0xbe1aa6a9	-0.15102638
117	0x3e1ab9a8	0.15109885
118	0x3e72536a	0.23664632
119	0x3d37f83a	0.04491446
120	0x3e575b18	0.21030843
121	0xbe05423e	-0.1301355
122	0xbd6db953	-0.058038067
123	0xbebd80c9	-0.37012318
124	0x3ea3f24c	0.32020795
125	0xbe064c6b	-0.13115089
126	0x3ceafc89	0.028684871
127	0xbe89cdf6	-0.26914948
128	0xbe7272f4	-0.23676664
129	0x3e13c1bf	0.14429377
130	0x3d428a1c	0.047494993
131	0x3d4c4b3a	0.04987643
132	0x3d64da6c	0.055872366
133	0xbcc71e42	-0.02430642
134	0xbdd4e941	-0.10396052
135	0xbdcc7088	-0.09982401
136	0x3d1213ce	0.03566342
137	0x3e303591	0.17207934
138	0xbe2cf158	-0.1688894
139	0x3e253a59	0.16135539
140	0x3cb517b6	0.022106033
141	0x3db913df	0.09036993
142	0xbdaa86a5	-0.08326463
143	0xbe6a4369	-0.22877277
144	0xbdd0bf70	-0.10192764
145	0xbac48eab	-0.0014996132
146	0xbd314ad3	-0.04328425
147	0x3de37f9e	0.111083254
148	0xbcb1e6b2	-0.02171645
149	0x3c88879e	0.01666623
150	0x3d7d259b	0.06180344
151	0x3dec519e	0.11539005
152	0x3d24aa78	0.040201634
153	0x3f2ebb44	0.68254495
154	0xbe494978	-0.19656932
155	0x3df7e3ee	0.12104021
156	0xbc4828e6	-0.012216782
157	0x3dbe19d0	0.09282267
158	0x3de2a0dc	0.11065838
159	0x3d8e5fd5	0.06951872
160	0x3dfb633a	0.12274785
161	0x3d56dc94	0.052456453
162	0xbd4786e0	-0.04871261
163	0x3d13fff0	0.036132753
164	0xbe992f83	-0.2991906
165	0xbdcf5499	-0.101235576
166	0xbbfb3235	-0.0076658973
167	0x3d748643	0.059698354
168	0x3dd34576	0.10315983
169	0xbe0579b4	-0.13034707
170	0xbd8f34e5	-0.06992511
171	0x3e822415	0.25418153
172	0xbd869abb	-0.06572481
173	0x3d8491fb	0.06473156
174	0x3dae168d	0.08500395
175	0xbc8c0297	-0.017091079
176	0x3d914ca8	0.07094699
177	0xbed7b85a	-0.42132837
178	0xbe11a8b4	-0.14224511
179	0x3d46f353	0.048571896
180	0xbc4bf64f	-0.012448861
181	0xbd8a84f7	-0.06763642
182	0x3e3ea45c	0.18617386
183	0xbe2ca265	-0.16858824
184	0x3da22859	0.07917852
185	0xbabd7d42	-0.0014456885
186	0xbe08320a	-0.13300338
187	0xbe4e8fce	-0.20172045
188	0x3d5624cf	0.052281197
189	0xbde72391	-0.11286081
190	0xbcccd772	-0.025005076
191	0xbe71e48c	-0.2362234
192	0xbdb3b098	-0.08773917
193	0x3e1fcf65	0.15606458
194	0x3d30bac8	0.04314688
195	0xbd4306d6	-0.04761394
196	0x3e2aa233	0.16663437
197	0xbc8ee704	-0.017444141
198	0xbc6cc6a6	-0.014451658
199	0xbe0f3b93	-0.1398757
200	0xbc93d117	-0.018044038
201	0xbcee4c7f	-0.02908921
202	0xbcd7c2f6	-0.026338082
203	0x3e17e45b	0.14833204
204	0x3e0e5acb	0.13901822
205	0xbc507906	-0.012724167
206	0x3dbf5164	0.09341696
207	0xbd0ca9d5	-0.034341652
208	0x3d6c9ec9	0.057768617
209	0x3d119de3	0.035550963
210	0x3e27a63f	0.16372012
211	0x3e00ea25	0.12589319
212	0x3c3af327	0.011410511
213	0xbca2a89d	-0.019855792
214	0x3d6fec14	0.05857475
215	0xbcb6935b	-0.022287061
216	0x3cf8ca6a	0.030369956
217	0x3ed01276	0.40639085
218	0xbe2c15ae	-0.16805145
219	0x3def24b7	0.11676925
220	0xbe03dbd4	-0.12876827
221	0xbb9e95a6	-0.004839617
222	0x3e4be330	0.19910884
223	0x3dbbdc63	0.09172895
224	0xbc8985d0	-0.01678744
225	0xbcaeda3d	-0.021344298
226	0xbdc957f2	-0.09831227
227	0x3c79cfbe	0.0152472835
228	0xbe1a475c	-0.15066284
229	0xbdb97087	-0.09054666
230	0xbd2d8dcc	-0.042371556
231	0xbdab430e	-0.08362399
232	0x3d55feb4	0.052244857
233	0xbcd31b1a	-0.025769759
234	0x3bbb8441	0.005722553
235	0x3e5f0a3e	0.21781251
236	0xbdb89c4e	-0.09014188
237	0x3e45d945	0.19321163
238	0x3b8f8dfb	0.004380939
239	0xbd8fa953	-0.07014718
240	0xbe25c81b	-0.16189615
241	0xbe1d2f94	-0.15350181
242	0xbc3af7cd	-0.011411619
243	0xbbff745d	-0.007795854
244	0x3df07818	0.11741656
245	0x3dc32302	0.095281616
246	0x3deae2b8	0.114690244
247	0x3c69bdfe	0.014266489
248	0x3e34cb13	0.17655592
249	0x3d8f7ff7	0.07006829
250	0xbd53af08	-0.051680595
251	0xbda2f3f5	-0.07956687
252	0x3e8337ea	0.25628597
253	0xbe398a1d	-0.18119092
254	0x3e1a617e	0.15076253
255	0xbd235f44	-0.039885774

rnn.weight_hh_l1 f4 [256, 64]
0	0x3d628690	0.05530411
1	0x3db849a4	0.08998421
2	0xbdbf838c	-0.093512625
3	0xbd82d09c	-0.06387445
4	0xbdeb6e18	-0.11495608
5	0xbd0a7ea4	-0.03381218
6	0xbd9a6126	-0.07538061
7	0x3d5896d8	0.05287823
8	0x3d07bf68	0.033141524
9	0x3df67dce	0.12035714
10	0xbdd3c88e	-0.10340987
11	0xbda65db2	-0.0812334
12	0xbbe33e40	-0.006934911
13	0xbd5587d0	-0.052131474
14	0x3cbd2190	0.023087293
15	0xbd860daa	-0.06545575
16	0xbde21e98	-0.110409915
17	0x3d4783a4	0.048709527
18	0x3da20880	0.079117775
19	0x3db01a6c	0.085987896
20	0xbdedfa26	-0.11619978
21	0xbda7fda6	-0.082026765
22	0x3dfd09a2	0.12355353
23	0xbdaf9370	-0.08573043
24	0xbcd630f0	-0.026146382
25	0x3df91144	0.12161496
26	0x3da22f88	0.07919222
27	0xbd401468	-0.04689446
28	0x3d791eac	0.060820267
29	0xb9839c00	-0.00025102496
30	0xbd161228	-0.03663841
31	0xbcf84158	-0.030304596
32	0x3dc7c9ea	0.09755309
33	0x3d9875dc	0.07444355
34	0xbd6b6a4c	-0.05747442
35	0xbde7a658	-0.113110244
36	0x3da8159a	0.08207245
37	0x3b130b40	0.0022437125
38	0xbd808c10	-0.06276715
39	0xbd1a17d8	-0.037620395
40	0xbde74014	-0.11291519
41	0xbd87ec64	-0.06636885
42	0x3cb61408	0.022226349
43	0x3df686fe	0.120374665
44	0xbcc977d8	-0.024593279
45	0x3d0315c8	0.032003194
46	0x3db7093a	0.08937307
47	0xbc0cd350	-0.008595303
48	0xbde101ba	-0.109866574
49	0xba914580	-0.0011083335
50	0x3dd8961e	0.105755076
51	0x3d335e40	0.043791056
52	0xbd3b9eec	-0.045805857
53	0x3c9d79d8	0.019223139
54	0xbd93b2e0	-0.07211852
55	0xbd4834cc	-0.048878476
56	0x3dc3fe2a	0.09569962
57	0x3ddb556e	0.10709654
58	0xbdcdcec6	-0.100492045
59	0x3db75a08	0.08952719
60	0xbd8d42c0	-0.06897497
61	0xbd951f06	-0.07281308
62	0xbdf7b69c	-0.12095377
63	0x3d210c6c	0.039318487
64	0xbd8d84b4	-0.06910077
65	0xbc18c1f0	-0.009323582
66	0x3df917b2	0.12162723
67	0xbdb63aa2	-0.08897902
68	0x3d6e9c58	0.05825457
69	0xbcbf77f0	-0.02337262
70	0xbd9ff638	-0.078106344
71	0x3d08ca98	0.033396333
72	0x3db1bdfa	0.08678813
73	0x3da4131a	0.08011456
74	0xbde20912	-0.11036886
75	0x3d125ba8	0.03573194
76	0xbdd8333e	-0.10556649
77	0x3deff5a0	0.11716771
78	0xbd84291a	-0.06453152
79	0xbdb7f616	-0.08982484
80	0xbc7a8b90	-0.015292063
81	0xbdd95244	-0.10611394
82	0x3d25ab30	0.04044646
83	0xbd5be4e0	-0.05368507
84	0x3d99da32	0.075123206
85	0xbdcfa012	-0.10137953
86	0x3ddeb480	0.108742714
87	0xbc0f8150	-0.008758858
88	0xbda61f1c	-0.081114024
89	0x3d2502a8	0.040285736
90	0xbbf2be20	-0.0074079186
91	0xba482500	-0.0007634908
92	0x3a8ecd00	0.0010894835
93	0xbdc377f0	-0.09544361
94	0xbd3002cc	-0.042971417
95	0xbd7feb0c	-0.062480018
96	0xbd7620ac	-0.060089752
97	0x3dce234c	0.10065326
98	0xbcf41ed0	-0.029799849
99	0xbc91d680	-0.017802477
100	0x3d85ba0c	0.06529626
101	0xbd31c018	-0.043396086
102	0xbc018ed0	-0.007907584
103	0xbd8c01c2	-0.06836273
104	0x3d351ad4	0.04421504
105	0xbc19e6a0	-0.009393364
106	0xbdf2e91c	-0.11860868
107	0x3d9be5ea	0.07612212
108	0x3cf4fea0	0.02990657
109	0x3dc45cb2	0.09587993
110	0xbd919fbe	-0.071105465
111	0xbdc1573a	-0.09440465
112	0x3ddc8812	0.10768141
113	0xbd13dfa4	-0.036101952
114	0xbd263c10	-0.040584624
115	0xbdd9bb5c	-0.10631439
116	0xbd9a7672	-0.07542123
117	0xbdd98320	-0.10620713
118	0x3d60ca54	0.054880455
119	0xbdc8737c	-0.09787652
120	0xbd352948	-0.044228822
121	0x3d980960	0.07423663
122	0xbd268968	-0.040658385
123	0x3db4d044	0.08828786
124	0x3dee7700	0.11643791
125	0x3dfeb410	0.12436688
126	0xbc323d90	-0.010878935
127	0x3d8be556	0.06830852
128	0xbd0e1de0	-0.03469646
129	0xbdc0cf2c	-0.09414515
130	0x3dc162a2	0.09442641
131	0x3d13e9e4	0.036111727
132	0xbd1d3ddc	-0.03838907
133	0xbde0ebf2	-0.10982503
134	0x3dc16f36	0.0944504
135	0x3d3e30e8	0.04643336
136	0xbbf89100	-0.0075856447
137	0xbdcc6ec0	-0.099820614
138	0xbd325df8	-0.043546647
139	0xbc06bd80	-0.008223891
140	0xbd72c66c	-0.05927126
141	0x3af50780	0.0018694252
142	0x3cf088b8	0.029362068
143	0x3c370ba0	0.011172205
144	0xbb233100	-0.0024901032
145	0xbd6e94b4	-0.058247283
146	0xbc628940	-0.013826668
147	0xbdd54974	-0.10414401
148	0xbd24e4fc	-0.04025744
149	0xbd87523e	-0.06607483
150	0x3dd785a6	0.10523538
151	0x3df821cc	0.12115821
152	0xbdde6522	-0.10859133
153	0x3c977940	0.018490434
154	0xbca9c008	-0.02072145
155	0x3d8ff64c	0.07029399
156	0xbde08202	-0.10962297
157	0x3d76890c	0.06018929
158	0x3d6256fc	0.055258736
159	0xbc1da870	-0.009622678
160	0x3db4cc70	0.08828056
161	0x3d4819c8	0.048852712
162	0x3caaaac0	0.020833373
163	0xbda10976	-0.07863133
164	0x3debeab0	0.115193725
165	0xbd84745a	-0.06467505
166	0x3db8067c	0.08985612
167	0xbd7ded84	-0.06199409
168	0x3d76c4f8	0.060246438
169	0x3ddf6e4e	0.10909711
170	0x3dd227ea	0.10261519
171	0xbd7b807c	-0.06140183
172	0x3cdb4490	0.026766092
173	0xbd7999e8	-0.060937792
174	0x3d9f3a94	0.07774845
175	0xbca51b78	-0.0201547
176	0xbd257600	-0.040395737
177	0xbce7a580	-0.028277159
178	0xbced2b30	-0.028951257
179	0xbdc36c00	-0.09542084
180	0x3dde0852	0.10841431
181	0xbce23f10	-0.027617961
182	0x3d35001c	0.044189557
183	0xbd81edf4	-0.06344214
184	0xba25fd00	-0.00063319504
185	0x3d92255c	0.07136032
186	0x3ad56200	0.0016279817
187	0xbde28850	-0.11061156
188	0x3d15c428	0.036564022
189	0xbdcc04f4	-0.09961882
190	0x3d95f4d0	0.07322085
191	0x3dd15d18	0.10222834
192	0x3d8e395a	0.06944533
193	0x3dae554e	0.08512364
194	0x3d59810c	0.053101584
195	0xbdc4ca3a	-0.09608884
196	0xbc539dc0	-0.0129160285
197	0x3d389a00	0.04506874
198	0x3d0094f0	0.031392038
199	0xbdedd932	-0.11613692
200	0xbde529ea	-0.11189635
201	0x3de8691a	0.113481715
202	0x3c1d6600	0.009606838
203	0x3ca74a78	0.020421252
204	0xbd964a4a	-0.07338388
205	0x3cc13350	0.023584038
206	0x3c14a7e0	0.009073228
207	0xbdd3d8a0	-0.10344052
208	0x3d65da44	0.056116357
209	0xbd2ab72c	-0.041678593
210	0x3d6e5d78	0.058194607
211	0xbdbf45e4	-0.093395025
212	0x3de51288	0.11185175
213	0xbdfe77fe	-0.124252304
214	0xbd2e1228	-0.042497784
215	0xbc8d46b0	-0.01724562
216	0xbdb3e2b2	-0.08783473
217	0x3d496424	0.049167767
218	0x3d520594	0.05127485
219	0xbcf9d390	-0.030496389
220	0xbdfa7a54	-0.122303635
221	0x3daf3d6a	0.08556636
222	0xbd414b10	-0.047190726
223	0xbc9e79a0	-0.019345105
224	0xbda1a818	-0.078933895
225	0x3a6a3200	0.0008933842
226	0x3da13970	0.078722835
227	0xbc43b500	-0.011945009
228	0x3db45f22	0.08807208
229	0xbd6bff60	-0.05761659
230	0x3cf4a660	0.02986449
231	0x3da42ace	0.08015977
232	0xbdbc2e88	-0.09188563
233	0x3dda7c20	0.10668206
234	0xbd863604	-0.065532714
235	0xbca6ef30	-0.020377725
236	0xbda95e0c	-0.08269891
237	0xbcbb6818	-0.022876784
238	0xbdc8fbc0	-0.098136425
239	0xbd6d2d18	-0.057904333
240	0xbdb2ef50	-0.087370515
241	0x3d5e84ec	0.054325983
242	0xbd2d9224	-0.0423757
243	0xbdcd8b00	-0.10036278
244	0x3cedf068	0.029045299
245	0x3db7c15e	0.08972429
246	0xbd78cf78	-0.060744733
247	0xbdc57298	-0.09640998
248	0xbdb10970	-0.08644378
249	0xbd277380	-0.040881634
250	0x3da48e92	0.08035006
251	0x3db6d05a	0.08926459
252	0x3da2117c	0.07913491
253	0xbcdac558	-0.026705429
254	0x3d3ece0c	0.04658322
255	0xbdea550e	-0.11442004

rnn.bias_ih_l1 f4 [256]
0	0x3daf848c	0.08570203
1	0x3e603d12	0.21898296
2	0x3daa32e8	0.08310491
3	0x3c951fb6	0.018203598
4	0x3dd7978b	0.105269514
5	0x3de7b7b8	0.113143384
6	0x3df22d2f	0.11825024
7	0xbd5e6266	-0.05429306
8	0x3d4e3c8c	0.05035071
9	0xbc1e436f	-0.009659632
10	0x3e2537ae	0.16134521
11	0x3e2921ad	0.16516753
12	0x3dfd4572	0.12366761
13	0x3dc5bf07	0.09655576
14	0x3d9507fe	0.07276915
15	0x3d89f45c	0.06736061
16	0xbcf99d53	-0.030470526
17	0x3de79efa	0.11309619
18	0xbcd9fb23	-0.02660901
19	0x3e8d8e7a	0.27647763
20	0x3dd16aa1	0.10225416
21	0x3d9cd748	0.07658249
22	0x3e029b19	0.12754478
23	0x3df851de	0.1212499
24	0x3c9bb987	0.019009365
25	0xbe2a42c5	-0.16627033
26	0x3cc94adb	0.024571827
27	0x3daee00e	0.08538829
28	0x3d66ed6f	0.056378778
29	0xbd4acee5	-0.049513716
30	0x3df9fc41	0.12206317
31	0x3e17b93a	0.14816752
32	0x3e858417	0.2607734
33	0xbc23100d	-0.009952557
34	0x3da378a3	0.07981994
35	0xbdc56309	-0.0963803
36	0x3da49fb7	0.08038276
37	0xbccb1bf6	-0.024793606
38	0xbd1adde5	-0.03780927
39	0xbe17ab05	-0.14811333
40	0xbca7b63d	-0.02047264
41	0x3ce31099	0.027717875
42	0x3e48d3dd	0.1961207
43	0x3dfa39b2	0.12218036
44	0x3d174250	0.036928475
45	0xbd6a87a8	-0.057258278
46	0x3e19b122	0.15008977
47	0xbd2499d4	-0.040185764
48	0x3d9f6f56	0.077849075
49	0x3db9c94c	0.090715975
50	0x3dcd2ff6	0.100189134
51	0x3e0cddbe	0.13756463
52	0x3d71aab6	0.059000693
53	0x3dccedba	0.1000628
54	0xbd65d0d5	-0.05610736
55	0x3d6dba5c	0.058039054
56	0xbdd03d67	-0.101679616
57	0xbdd55cc8	-0.10418087
58	0x3d73393f	0.059380766
59	0x3cf6cd86	0.030127298
60	0xbe11bfd3	-0.14233331
61	0x3bd0edf5	0.006376023
62	0x3e25e0db	0.16199057
63	0x3d03630d	0.032076884
64	0xbdba5362	-0.09097935
65	0xbd8aeeee	-0.067838535
66	0xbc81af58	-0.01583068
67	0xbd433ba4	-0.0476643
68	0xbde3c6dc	-0.11121914
69	0x3ddf2d66	0.10897331
70	0x3c2dd4d0	0.0106098205
71	0x3d518a1c	0.051157102
72	0xbd4fe900	-0.050759315
73	0x3d25ab7c	0.040446743
74	0x3df2d790	0.118575215
75	0x3bc2c3c0	0.0059437454
76	0x3d3cf6bc	0.04613374
77	0xbca475a8	-0.020075634
78	0xbbea0aa0	-0.00714238
79	0xbcf7c070	-0.030243129
80	0x3d9a8db8	0.07546562
81	0x3c8b5560	0.017008483
82	0x3d37cd1c	0.044873342
83	0xbd3157bc	-0.04329656
84	0xbdf37808	-0.118881285
85	0xbd2e29ec	-0.04252045
86	0x3dcb5fa2	0.0993035
87	0xbdd3ec74	-0.10347834
88	0x3deb7d36	0.114984915
89	0xbde4d228	-0.111728966
90	0x3dddacd0	0.10823977
91	0xbddb726c	-0.107151836
92	0xbd943492	-0.072365895
93	0xbc61d1e0	-0.013782948
94	0xbdb2827e	-0.08716296
95	0xbd9f3fe4	-0.07775858
96	0xbd6085bc	-0.05481504
97	0xbd7fcdbc	-0.062452063
98	0x3dbbb9e0	0.09166312
99	0xbd6bdd68	-0.057584196
100	0xbdcc52c6	-0.09976725
101	0x3de949c4	0.11391023
102	0x3cb20030	0.021728605
103	0xbdaf18f8	-0.08549684
104	0x3d15c1e4	0.03656186
105	0xbda03b0c	-0.07823762
106	0xbd6fa3e0	-0.058505893
107	0x3d8fcbc0	0.07021284
108	0x3d051530	0.03249091
109	0xbd760174	-0.06005998
110	0x3dec9aae	0.1155294
111	0xbd6739c8	-0.05645159
112	0x3d00ec94	0.03147562
113	0x3d492a74	0.049112752
114	0xbd690b24	-0.05689539
115	0xbd7b53f8	-0.061359376
116	0xbde7e8e4	-0.11323717
117	0xbd92b40c	-0.071632475
118	0xbcffa330	-0.031205744
119	0x3d6fc9ac	0.05854194
120	0xbdb37524	-0.08762577
121	0x3c450a20	0.01202634
122	0xbdbf1428	-0.093300164
123	0x3c6e75d0	0.014554456
124	0x3ddce624	0.10786083
125	0xba8e7500	-0.0010868609
126	0x3dbda0dc	0.09259197
127	0xbd91817c	-0.07104775
128	0xbd7d0a5d	-0.06177746
129	0xbc236ac5	-0.009974186
130	0x3d846b4e	0.06465779
131	0x3dd7860c	0.10523614
132	0x3ca83853	0.02053467
133	0xbd67e414	-0.056613997
134	0x3d92d3e2	0.0716932
135	0x3d9fe9dc	0.07808277
136	0x3c9113c5	0.017709622
137	0xbd40b489	-0.04704717
138	0x3c32ecb3	0.010920691
139	0x3d2a8cff	0.04163837
140	0xbd9264c2	-0.07148124
141	0xbe175453	-0.14778261
142	0x3d71f69c	0.059073076
143	0xbd66dc36	-0.056362353
144	0x3c184eff	0.009296178
145	0x3e0ad8a1	0.135592
146	0x3d9913e4	0.07474497
147	0x3d8045cf	0.06263315
148	0x3d5db51e	0.054127805
149	0x3c2f4519	0.0106976265
150	0x3dd64dd4	0.10464063
151	0xbc304002	-0.010757448
152	0x3e028173	0.12744693
153	0x3d8cc9e0	0.06874442
154	0xbdb938fe	-0.090440735
155	0x3d92e190	0.07171929
156	0x3dcd324e	0.100193605
157	0x3d36929b	0.044573408
158	0x3dbdfab3	0.09276333
159	0xbbfbbf22	-0.007682697
160	0xbd1f4ca6	-0.038891457
161	0x3deb9ce4	0.11504534
162	0xbdae0d99	-0.08498687
163	0xbdca9f24	-0.09893635
164	0xbcfe862d	-0.03106984
165	0x3d651bfc	0.05593489
166	0xbb4e10b8	-0.003144307
167	0x3db1d791	0.08683694
168	0xbdd40805	-0.10353092
169	0x3df753b6	0.120765135
170	0xbdf130d5	-0.11776892
171	0xbe0ab19f	-0.1354432
172	0xbd62421f	-0.05523884
173	0xbcab0500	-0.020876408
174	0xbc379ec5	-0.011207287
175	0xbdbfe325	-0.09369496
176	0x3cf91828	0.030407026
177	0x3dab5ebd	0.08367679
178	0x3e0989c7	0.13431464
179	0x3ca9a7c7	0.020709885
180	0x3c742a73	0.014902699
181	0x3db38e00	0.08767319
182	0x3e163219	0.14667548
183	0x3caf6c1d	0.021413857
184	0x3daff7ea	0.08592208
185	0xbcd028d8	-0.0254101
186	0x3dbb36da	0.091413215
187	0xbd805ebb	-0.062680684
188	0xb9ee0bd3	-0.00045403707
189	0x3e13d08b	0.14435022
190	0x3dab4f39	0.0836472
191	0x3d9f6740	0.07783365
192	0x3d4a7123	0.0494243
193	0x3e2918db	0.16513388
194	0xbd7d3a69	-0.061823282
195	0x3e2c5961	0.1683097
196	0xbd6c69dd	-0.057718147
197	0x3e03a644	0.12856394
198	0x3dfefed6	0.1245095
199	0xbd060252	-0.032717057
200	0x3da0869e	0.07838176
201	0x3dacfeb8	0.08447021
202	0x3e14b4e2	0.14522126
203	0x3e45d329	0.19318832
204	0x3a808449	0.0009805049
205	0x3c8752b6	0.016518932
206	0x3e191309	0.14948668
207	0x3dad76b1	0.08469904
208	0x3d7ae7a1	0.061256055
209	0x3e103e6a	0.14086309
210	0x3cff9309	0.031198042
211	0x3e1b973d	0.15194412
212	0x3e2d6bf4	0.16935712
213	0x3d1f745e	0.038929336
214	0x3ce16380	0.027513266
215	0x3d917458	0.07102269
216	0x3e0cd4b6	0.13753018
217	0xbcfccf82	-0.030860666
218	0xbdb9bf24	-0.0906966
219	0xbddc10a3	-0.10745361
220	0x3dc81f11	0.097715504
221	0xbcba0fe3	-0.022712654
222	0x3d1ec754	0.038764313
223	0xbbfc2693	-0.007695028
224	0x3e31aff1	0.17352273
225	0xbcf0fd30	-0.029417604
226	0xbdc7cdb6	-0.09756033
227	0xbdb23e2b	-0.08703264
228	0x3e2f3a9f	0.17112206
229	0x3cbd9aa6	0.023145031
230	0x3d4a2d62	0.049359687
231	0xbca04003	-0.019561773
232	0x3d84f0d5	0.064912476
233	0xbda2be92	-0.07946505
234	0x3e53847a	0.20656005
235	0x3d08e7de	0.03342425
236	0x3c09ca4d	0.008410049
237	0xbd38b2c0	-0.045092344
238	0xbdba214c	-0.09088382
239	0xbdda4c41	-0.106590755
240	0xbc947d24	-0.018126078
241	0xbda31da9	-0.079646416
242	0x3c5ca26e	0.013466461
243	0xbd2d7f6e	-0.042357855
244	0x3d5eaeda	0.05436597
245	0xbd832d1b	-0.064050876
246	0xbc957d54	-0.018248238
247	0xbdb2540e	-0.087074384
248	0x3c74db57	0.014944873
249	0xbe022331	-0.12708737
250	0xbbdb548a	-0.0066934275
251	0x3e209233	0.1568077
252	0xbdf3cadb	-0.11903926
253	0xbcc5f8d8	-0.02416651
254	0x3d901b66	0.07036476
255	0x3cdbfddd	0.02685445
